sentinel_brain.onnx (onnx, 12277 bytes, 8 tensors)

encoder.0.weight f4 [3, 4]
-0.16558492 0.09407455 0.22483695 -0.45304453 -0.26641798 -0.5245929 -0.49353844 0.4180275
-0.31120902 -0.26333976 -0.24850142 0.17860055
00000000: 188f 29be 28aa c03d a83b 663e 74f5 e7be
00000010: f067 88be b84b 06bf 12b1 fcbe b307 d63e
00000020: ca56 9fbe 78d4 86be 2877 7ebe 10e3 363e

encoder.0.bias f4 [3]
-0.260347 0.15433694 -0.15989357
00000000: 344c 85be 810a 1e3e 24bb 23be

encoder.2.weight f4 [2, 3]
-0.32275787 0.07805464 0.24803758 -0.02162993 0.5279497 -0.19587404
00000000: 8540 a5be 1cdb 9f3d 90fd 7d3e 4031 b1bc
00000010: b627 073f 3493 48be

encoder.2.bias f4 [2]
-0.037797987 -0.13427833
00000000: 10d2 1abd 4280 09be

decoder.0.weight f4 [3, 2]
-0.45206648 -0.2221817 0.6125235 -0.054547787 -0.053044677 0.105235696
00000000: 4275 e7be 9983 63be 57ce 1c3f 806d 5fbd
00000010: 6045 59bd d085 d73d

decoder.0.bias f4 [3]
1.1859744 -0.065692425 -0.25670135
00000000: 02ce 973f c089 86bd 5c6e 83be

decoder.2.weight f4 [4, 3]
-0.67745024 0.54176676 -0.1334917 -0.14588581 0.5245166 0.0842849 -0.9740676 0.08457476
-0.44575948 -0.79356456 0.018558681 -0.10483688
00000000: 616d 2dbf 3ab1 0a3f 0cb2 08be 1763 15be
00000010: b846 063f 909d ac3d 7f5c 79bf 8835 ad3d
00000020: 963a e4be 0c27 4bbf 6008 983c b8b4 d6bd

decoder.2.bias f4 [4]
-0.19526732 -0.45379308 -0.08775899 -0.5371144
00000000: 28f4 47be 9157 e8be fcba b3bd 5480 09bf
